…
 log_interval=5, lr=0.0003, ltl_encoder='LLM', ltl_sampler='Until_1_3_1_2', ltl_samplers_eval=None, max_grad_norm=0.5, model=None, noLTL=False, optim_alpha=0.99, optim_eps=1e-08, pretrained_ltl_encoder=False, procs=16, progression_mode='full', recurrence=1, save_interval=20, seed=1, value_loss_coef=0.5, wandb=True)

Device: cuda

Using fixed maps.
Environments loaded

Training status loaded.

Observations preprocessor loaded.

Load pretrained SentenceTransformer: sentence-transformers/all-MiniLM-L6-v2
Model loaded.

ACModel(
  (env_model): LetterEnvModel(
    (image_conv): Sequential(
      (0): Conv2d(13, 16, kernel_size=(2, 2), stride=(1, 1))
      (1): ReLU()
      (2): Conv2d(16, 32, kernel_size=(2, 2), stride=(1, 1))
      (3): ReLU()
      (4): Conv2d(32, 64, kernel_size=(2, 2), stride=(1, 1))
      (5): ReLU()
    )
  )
  (llm): SentenceTransformer(
    (0): Transformer({'max_seq_length': 256, 'do_lower_case': False}) with Transformer model: BertModel 
    (1): Pooling({'word_embedding_dimension': 384, 'pooling_mode_cls_token': False, 'pooling_mode_mean_tokens': True, 'pooling_mode_max_tokens': False, 'pooling_mode_mean_sqrt_len_tokens': False})
    (2): Normalize()
  )
  (actor): PolicyNetwork(
    (enc_): Sequential(
      (0): Sequential(
        (0): Linear(in_features=1408, out_features=64, bias=True)
        (1): ReLU()
      )
      (1): Sequential(
        (0): Linear(in_features=64, out_features=64, bias=True)
        (1): ReLU()
      )
      (2): Sequential(
        (0): Linear(in_features=64, out_features=64, bias=True)
        (1): ReLU()
      )
    )
    (discrete_): Sequential(
      (0): Linear(in_features=64, out_features=4, bias=True)
    )
  )
  (critic): Sequential(
    (0): Linear(in_features=1408, out_features=64, bias=True)
    (1): Tanh()
    (2): Linear(in_features=64, out_features=64, bias=True)
    (3): Tanh()
    (4): Linear(in_features=64, out_features=1, bias=True)
  )
)

Optimizer loaded.

U 5 | F 010240 | FPS 0956 | D 11 | rR:μσmM -0.52 0.80 -1.00 1.00 | ARPS: -0.080 | ADR: -0.224 | F:μσmM 29.8 23.9 1.0 76.0 | H 1.381 | V -0.178 | pL -0.005 | vL 0.099 | ∇ 0.041
U 10 | F 020480 | FPS 0883 | D 22 | rR:μσmM -0.59 0.78 -1.00 1.00 | ARPS: -0.080 | ADR: -0.301 | F:μσmM 24.4 21.9 1.0 76.0 | H 1.386 | V -0.202 | pL 0.021 | vL 0.125 | ∇ 0.077
…
